…
module.decoder.layer_stack.5.enc_attn.linear_q.weight
module.decoder.layer_stack.5.enc_attn.linear_k.weight
module.decoder.layer_stack.5.enc_attn.linear_v.weight
module.decoder.layer_stack.5.enc_attn.fc.weight
module.decoder.layer_stack.5.mlp.w_1.weight
module.decoder.layer_stack.5.mlp.w_1.bias
module.decoder.layer_stack.5.mlp.w_2.weight
module.decoder.layer_stack.5.mlp.w_2.bias
module.decoder.layer_norm.weight
module.decoder.layer_norm.bias
module.decoder.classifier.weight
module.decoder.classifier.bias
DataParallel(
  (module): DINO_Finetune(
    (backbone): VisionTransformer(
      (patch_embed): PatchEmbed(
        (proj): Conv2d(3, 384, kernel_size=(4, 4), stride=(4, 4))
      )
      (pos_drop): Dropout(p=0.0, inplace=False)
      (blocks): ModuleList(
        (0): Block(
          (norm1): LayerNorm((384,), eps=1e-06, elementwise_affine=True)
          (attn): Attention(
            (qkv): Linear(in_features=384, out_features=1152, bias=True)
            (attn_drop): Dropout(p=0.0, inplace=False)
            (proj): Linear(in_features=384, out_features=384, bias=True)
            (proj_drop): Dropout(p=0.0, inplace=False)
          )
          (drop_path): Identity()
          (norm2): LayerNorm((384,), eps=1e-06, elementwise_affine=True)
          (mlp): Mlp(
            (fc1): Linear(in_features=384, out_features=1536, bias=True)
            (act): GELU()
            (fc2): Linear(in_features=1536, out_features=384, bias=True)
            (drop): Dropout(p=0.0, inplace=False)
          )
        )
        (1): Block(
          (norm1): LayerNorm((384,), eps=1e-06, elementwise_affine=True)
          (attn): Attention(
            (qkv): Linear(in_features=384, out_features=1152, bias=True)
            (attn_drop): Dropout(p=0.0, inplace=False)
            (proj): Linear(in_features=384, out_features=384, bias=True)
            (proj_drop): Dropout(p=0.0, inplace=False)
          )
          (drop_path): DropPath()
          (norm2): LayerNorm((384,), eps=1e-06, elementwise_affine=True)
          (mlp): Mlp(
            (fc1): Linear(in_features=384, out_features=1536, bias=True)
            (act): GELU()
            (fc2): Linear(in_features=1536, out_features=384, bias=True)
            (drop): Dropout(p=0.0, inplace=False)
          )
        )
        (2): Block(
          (norm1): LayerNorm((384,), eps=1e-06, elementwise_affine=True)
          (attn): Attention(
            (qkv): Linear(in_features=384, out_features=1152, bias=True)
            (attn_drop): Dropout(p=0.0, inplace=False)
            (proj): Linear(in_features=384, out_features=384, bias=True)
            (proj_drop): Dropout(p=0.0, inplace=False)
          )
          (drop_path): DropPath()
          (norm2): LayerNorm((384,), eps=1e-06, elementwise_affine=True)
          (mlp): Mlp(
            (fc1): Linear(in_features=384, out_features=1536, bias=True)
            (act): GELU()
            (fc2): Linear(in_features=1536, out_features=384, bias=True)
            (drop): Dropout(p=0.0, inplace=False)
          )
        )
        (3): Block(
          (norm1): LayerNorm((384,), eps=1e-06, elementwise_affine=True)
          (attn): Attention(
            (qkv): Linear(in_features=384, out_features=1152, bias=True)
            (attn_drop): Dropout(p=0.0, inplace=False)
            (proj): Linear(in_features=384, out_features=384, bias=True)
            (proj_drop): Dropout(p=0.0, inplace=False)
          )
          (drop_path): DropPath()
          (norm2): LayerNorm((384,), eps=1e-06, elementwise_affine=True)
          (mlp): Mlp(
            (fc1): Linear(in_features=384, out_features=1536, bias=True)
            (act): GELU()
            (fc2): Linear(in_features=1536, out_features=384, bias=True)
            (drop): Dropout(p=0.0, inplace=False)
          )
        )
        (4): Block(
          (norm1): LayerNorm((384,), eps=1e-06, elementwise_affine=True)
          (attn): Attention(
            (qkv): Linear(in_features=384, out_features=1152, bias=True)
            (attn_drop): Dropout(p=0.0, inplace=False)
            (proj): Linear(in_features=384, out_features=384, bias=True)
            (proj_drop): Dropout(p=0.0, inplace=False)
          )
          (drop_path): DropPath()
          (norm2): LayerNorm((384,), eps=1e-06, elementwise_affine=True)
          (mlp): Mlp(
            (fc1): Linear(in_features=384, out_features=1536, bias=True)
            (act): GELU()
            (fc2): Linear(in_features=1536, out_features=384, bias=True)
            (drop): Dropout(p=0.0, inplace=False)
          )
        )
        (5): Block(
          (norm1): LayerNorm((384,), eps=1e-06, elementwise_affine=True)
          (attn): Attention(
            (qkv): Linear(in_features=384, out_features=1152, bias=True)
            (attn_drop): Dropout(p=0.0, inplace=False)
            (proj): Linear(in_features=384, out_features=384, bias=True)
            (proj_drop): Dropout(p=0.0, inplace=False)
          )
          (drop_path): DropPath()
          (norm2): LayerNorm((384,), eps=1e-06, elementwise_affine=True)
          (mlp): Mlp(
            (fc1): Linear(in_features=384, out_features=1536, bias=True)
            (act): GELU()
            (fc2): Linear(in_features=1536, out_features=384, bias=True)
            (drop): Dropout(p=0.0, inplace=False)
          )
        )
        (6): Block(
          (norm1): LayerNorm((384,), eps=1e-06, elementwise_affine=True)
          (attn): Attention(
            (qkv): Linear(in_features=384, out_features=1152, bias=True)
            (attn_drop): Dropout(p=0.0, inplace=False)
            (proj): Linear(in_features=384, out_features=384, bias=True)
            (proj_drop): Dropout(p=0.0, inplace=False)
          )
          (drop_path): DropPath()
          (norm2): LayerNorm((384,), eps=1e-06, elementwise_affine=True)
          (mlp): Mlp(
            (fc1): Linear(in_features=384, out_features=1536, bias=True)
            (act): GELU()
            (fc2): Linear(in_features=1536, out_features=384, bias=True)
            (drop): Dropout(p=0.0, inplace=False)
          )
        )
        (7): Block(
          (norm1): LayerNorm((384,), eps=1e-06, elementwise_affine=True)
          (attn): Attention(
            (qkv): Linear(in_features=384, out_features=1152, bias=True)
            (attn_drop): Dropout(p=0.0, inplace=False)
            (proj): Linear(in_features=384, out_features=384, bias=True)
            (proj_drop): Dropout(p=0.0, inplace=False)
          )
          (drop_path): DropPath()
          (norm2): LayerNorm((384,), eps=1e-06, elementwise_affine=True)
          (mlp): Mlp(
            (fc1): Linear(in_features=384, out_features=1536, bias=True)
            (act): GELU()
            (fc2): Linear(in_features=1536, out_features=384, bias=True)
            (drop): Dropout(p=0.0, inplace=False)
          )
        )
        (8): Block(
          (norm1): LayerNorm((384,), eps=1e-06, elementwise_affine=True)
          (attn): Attention(
            (qkv): Linear(in_features=384, out_features=1152, bias=True)
            (attn_drop): Dropout(p=0.0, inplace=False)
            (proj): Linear(in_features=384, out_features=384, bias=True)
            (proj_drop): Dropout(p=0.0, inplace=False)
          )
          (drop_path): DropPath()
          (norm2): LayerNorm((384,), eps=1e-06, elementwise_affine=True)
          (mlp): Mlp(
            (fc1): Linear(in_features=384, out_features=1536, bias=True)
            (act): GELU()
            (fc2): Linear(in_features=1536, out_features=384, bias=True)
            (drop): Dropout(p=0.0, inplace=False)
          )
        )
        (9): Block(
          (norm1): LayerNorm((384,), eps=1e-06, elementwise_affine=True)
          (attn): Attention(
            (qkv): Linear(in_features=384, out_features=1152, bias=True)
            (attn_drop): Dropout(p=0.0, inplace=False)
            (proj): Linear(in_features=384, out_features=384, bias=True)
            (proj_drop): Dropout(p=0.0, inplace=False)
          )
          (drop_path): DropPath()
          (norm2): LayerNorm((384,), eps=1e-06, elementwise_affine=True)
          (mlp): Mlp(
            (fc1): Linear(in_features=384, out_features=1536, bias=True)
            (act): GELU()
            (fc2): Linear(in_features=1536, out_features=384, bias=True)
            (drop): Dropout(p=0.0, inplace=False)
          )
        )
        (10): Block(
          (norm1): LayerNorm((384,), eps=1e-06, elementwise_affine=True)
          (attn): Attention(
            (qkv): Linear(in_features=384, out_features=1152, bias=True)
            (attn_drop): Dropout(p=0.0, inplace=False)
            (proj): Linear(in_features=384, out_features=384, bias=True)
            (proj_drop): Dropout(p=0.0, inplace=False)
          )
          (drop_path): DropPath()
          (norm2): LayerNorm((384,), eps=1e-06, elementwise_affine=True)
          (mlp): Mlp(
            (fc1): Linear(in_features=384, out_features=1536, bias=True)
            (act): GELU()
            (fc2): Linear(in_features=1536, out_features=384, bias=True)
            (drop): Dropout(p=0.0, inplace=False)
          )
        )
        (11): Block(
          (norm1): LayerNorm((384,), eps=1e-06, elementwise_affine=True)
          (attn): Attention(
            (qkv): Linear(in_features=384, out_features=1152, bias=True)
            (attn_drop): Dropout(p=0.0, inplace=False)
            (proj): Linear(in_features=384, out_features=384, bias=True)
            (proj_drop): Dropout(p=0.0, inplace=False)
          )
          (drop_path): DropPath()
          (norm2): LayerNorm((384,), eps=1e-06, elementwise_affine=True)
          (mlp): Mlp(
            (fc1): Linear(in_features=384, out_features=1536, bias=True)
            (act): GELU()
            (fc2): Linear(in_features=1536, out_features=384, bias=True)
            (drop): Dropout(p=0.0, inplace=False)
          )
        )
      )
      (norm): LayerNorm((384,), eps=1e-06, elementwise_affine=True)
      (head): Identity()
      (norm_seg): Sequential(
        (0): LayerNorm((384,), eps=1e-06, elementwise_affine=True)
        (1): LayerNorm((384,), eps=1e-06, elementwise_affine=True)
        (2): LayerNorm((384,), eps=1e-06, elementwise_affine=True)
      )
    )
    (encoder): Mlp(
      (fc1): Linear(in_features=384, out_features=512, bias=True)
      (act): GELU()
      (fc2): Linear(in_features=512, out_features=512, bias=True)
      (drop): Dropout(p=0.1, inplace=False)
    )
    (decoder): NRTRDecoder(
      (trg_word_emb): Embedding(93, 512, padding_idx=92)
      (position_enc): PositionalEncoding(
        (dropout): Dropout(p=0, inplace=False)
      )
      (dropout): Dropout(p=0.1, inplace=False)
      (layer_stack): ModuleList(
        (0): TFDecoderLayer(
          (norm1): LayerNorm((512,), eps=1e-05, elementwise_affine=True)
          (norm2): LayerNorm((512,), eps=1e-05, elementwise_affine=True)
          (norm3): LayerNorm((512,), eps=1e-05, elementwise_affine=True)
          (self_attn): MultiHeadAttention(
            (linear_q): Linear(in_features=512, out_features=512, bias=False)
            (linear_k): Linear(in_features=512, out_features=512, bias=False)
            (linear_v): Linear(in_features=512, out_features=512, bias=False)
            (attention): ScaledDotProductAttention(
              (dropout): Dropout(p=0.1, inplace=False)
            )
            (fc): Linear(in_features=512, out_features=512, bias=False)
            (proj_drop): Dropout(p=0.1, inplace=False)
          )
          (enc_attn): MultiHeadAttention(
            (linear_q): Linear(in_features=512, out_features=512, bias=False)
            (linear_k): Linear(in_features=512, out_features=512, bias=False)
            (linear_v): Linear(in_features=512, out_features=512, bias=False)
            (attention): ScaledDotProductAttention(
              (dropout): Dropout(p=0.1, inplace=False)
            )
            (fc): Linear(in_features=512, out_features=512, bias=False)
            (proj_drop): Dropout(p=0.1, inplace=False)
          )
          (mlp): PositionwiseFeedForward(
            (w_1): Linear(in_features=512, out_features=256, bias=True)
            (w_2): Linear(in_features=256, out_features=512, bias=True)
            (act): GELU()
            (dropout): Dropout(p=0.1, inplace=False)
          )
        )
        (1): TFDecoderLayer(
          (norm1): LayerNorm((512,), eps=1e-05, elementwise_affine=True)
          (norm2): LayerNorm((512,), eps=1e-05, elementwise_affine=True)
          (norm3): LayerNorm((512,), eps=1e-05, elementwise_affine=True)
          (self_attn): MultiHeadAttention(
            (linear_q): Linear(in_features=512, out_features=512, bias=False)
            (linear_k): Linear(in_features=512, out_features=512, bias=False)
            (linear_v): Linear(in_features=512, out_features=512, bias=False)
            (attention): ScaledDotProductAttention(
              (dropout): Dropout(p=0.1, inplace=False)
            )
            (fc): Linear(in_features=512, out_features=512, bias=False)
            (proj_drop): Dropout(p=0.1, inplace=False)
          )
          (enc_attn): MultiHeadAttention(
            (linear_q): Linear(in_features=512, out_features=512, bias=False)
            (linear_k): Linear(in_features=512, out_features=512, bias=False)
            (linear_v): Linear(in_features=512, out_features=512, bias=False)
            (attention): ScaledDotProductAttention(
              (dropout): Dropout(p=0.1, inplace=False)
            )
            (fc): Linear(in_features=512, out_features=512, bias=False)
            (proj_drop): Dropout(p=0.1, inplace=False)
          )
          (mlp): PositionwiseFeedForward(
            (w_1): Linear(in_features=512, out_features=256, bias=True)
            (w_2): Linear(in_features=256, out_features=512, bias=True)
            (act): GELU()
            (dropout): Dropout(p=0.1, inplace=False)
          )
        )
        (2): TFDecoderLayer(
          (norm1): LayerNorm((512,), eps=1e-05, elementwise_affine=True)
          (norm2): LayerNorm((512,), eps=1e-05, elementwise_affine=True)
          (norm3): LayerNorm((512,), eps=1e-05, elementwise_affine=True)
          (self_attn): MultiHeadAttention(
            (linear_q): Linear(in_features=512, out_features=512, bias=False)
            (linear_k): Linear(in_features=512, out_features=512, bias=False)
            (linear_v): Linear(in_features=512, out_features=512, bias=False)
            (attention): ScaledDotProductAttention(
              (dropout): Dropout(p=0.1, inplace=False)
            )
            (fc): Linear(in_features=512, out_features=512, bias=False)
            (proj_drop): Dropout(p=0.1, inplace=False)
          )
          (enc_attn): MultiHeadAttention(
            (linear_q): Linear(in_features=512, out_features=512, bias=False)
            (linear_k): Linear(in_features=512, out_features=512, bias=False)
            (linear_v): Linear(in_features=512, out_features=512, bias=False)
            (attention): ScaledDotProductAttention(
              (dropout): Dropout(p=0.1, inplace=False)
            )
            (fc): Linear(in_features=512, out_features=512, bias=False)
            (proj_drop): Dropout(p=0.1, inplace=False)
          )
          (mlp): PositionwiseFeedForward(
            (w_1): Linear(in_features=512, out_features=256, bias=True)
            (w_2): Linear(in_features=256, out_features=512, bias=True)
            (act): GELU()
            (dropout): Dropout(p=0.1, inplace=False)
          )
        )
        (3): TFDecoderLayer(
          (norm1): LayerNorm((512,), eps=1e-05, elementwise_affine=True)
          (norm2): LayerNorm((512,), eps=1e-05, elementwise_affine=True)
          (norm3): LayerNorm((512,), eps=1e-05, elementwise_affine=True)
          (self_attn): MultiHeadAttention(
            (linear_q): Linear(in_features=512, out_features=512, bias=False)
            (linear_k): Linear(in_features=512, out_features=512, bias=False)
            (linear_v): Linear(in_features=512, out_features=512, bias=False)
            (attention): ScaledDotProductAttention(
              (dropout): Dropout(p=0.1, inplace=False)
            )
            (fc): Linear(in_features=512, out_features=512, bias=False)
            (proj_drop): Dropout(p=0.1, inplace=False)
          )
          (enc_attn): MultiHeadAttention(
            (linear_q): Linear(in_features=512, out_features=512, bias=False)
            (linear_k): Linear(in_features=512, out_features=512, bias=False)
            (linear_v): Linear(in_features=512, out_features=512, bias=False)
            (attention): ScaledDotProductAttention(
              (dropout): Dropout(p=0.1, inplace=False)
            )
            (fc): Linear(in_features=512, out_features=512, bias=False)
            (proj_drop): Dropout(p=0.1, inplace=False)
          )
          (mlp): PositionwiseFeedForward(
            (w_1): Linear(in_features=512, out_features=256, bias=True)
            (w_2): Linear(in_features=256, out_features=512, bias=True)
            (act): GELU()
            (dropout): Dropout(p=0.1, inplace=False)
          )
        )
        (4): TFDecoderLayer(
          (norm1): LayerNorm((512,), eps=1e-05, elementwise_affine=True)
          (norm2): LayerNorm((512,), eps=1e-05, elementwise_affine=True)
          (norm3): LayerNorm((512,), eps=1e-05, elementwise_affine=True)
          (self_attn): MultiHeadAttention(
            (linear_q): Linear(in_features=512, out_features=512, bias=False)
            (linear_k): Linear(in_features=512, out_features=512, bias=False)
            (linear_v): Linear(in_features=512, out_features=512, bias=False)
            (attention): ScaledDotProductAttention(
              (dropout): Dropout(p=0.1, inplace=False)
            )
            (fc): Linear(in_features=512, out_features=512, bias=False)
            (proj_drop): Dropout(p=0.1, inplace=False)
          )
          (enc_attn): MultiHeadAttention(
            (linear_q): Linear(in_features=512, out_features=512, bias=False)
            (linear_k): Linear(in_features=512, out_features=512, bias=False)
            (linear_v): Linear(in_features=512, out_features=512, bias=False)
            (attention): ScaledDotProductAttention(
              (dropout): Dropout(p=0.1, inplace=False)
            )
            (fc): Linear(in_features=512, out_features=512, bias=False)
            (proj_drop): Dropout(p=0.1, inplace=False)
          )
          (mlp): PositionwiseFeedForward(
            (w_1): Linear(in_features=512, out_features=256, bias=True)
            (w_2): Linear(in_features=256, out_features=512, bias=True)
            (act): GELU()
            (dropout): Dropout(p=0.1, inplace=False)
          )
        )
        (5): TFDecoderLayer(
          (norm1): LayerNorm((512,), eps=1e-05, elementwise_affine=True)
          (norm2): LayerNorm((512,), eps=1e-05, elementwise_affine=True)
          (norm3): LayerNorm((512,), eps=1e-05, elementwise_affine=True)
          (self_attn): MultiHeadAttention(
            (linear_q): Linear(in_features=512, out_features=512, bias=False)
            (linear_k): Linear(in_features=512, out_features=512, bias=False)
            (linear_v): Linear(in_features=512, out_features=512, bias=False)
            (attention): ScaledDotProductAttention(
              (dropout): Dropout(p=0.1, inplace=False)
            )
            (fc): Linear(in_features=512, out_features=512, bias=False)
            (proj_drop): Dropout(p=0.1, inplace=False)
          )
          (enc_attn): MultiHeadAttention(
            (linear_q): Linear(in_features=512, out_features=512, bias=False)
            (linear_k): Linear(in_features=512, out_features=512, bias=False)
            (linear_v): Linear(in_features=512, out_features=512, bias=False)
            (attention): ScaledDotProductAttention(
              (dropout): Dropout(p=0.1, inplace=False)
            )
            (fc): Linear(in_features=512, out_features=512, bias=False)
            (proj_drop): Dropout(p=0.1, inplace=False)
          )
          (mlp): PositionwiseFeedForward(
            (w_1): Linear(in_features=512, out_features=256, bias=True)
            (w_2): Linear(in_features=256, out_features=512, bias=True)
            (act): GELU()
            (dropout): Dropout(p=0.1, inplace=False)
          )
        )
      )
      (layer_norm): LayerNorm((512,), eps=1e-06, elementwise_affine=True)
      (classifier): Linear(in_features=512, out_features=92, bias=True)
    )
    (loss): TFLoss(
      (loss_ce): CrossEntropyLoss()
    )
  )
)

Trainable params num: 36148572

iteration:0--> train loss:4.752060890197754
eval model
ModelConfig(
	(0): arch = vit_small
	(1): clip_grad = None
	(2): dataset_augmentation_severity = 0
	(3): dataset_case_sensitive = False
	(4): dataset_charset_path = data/charset_36.txt
	(5): dataset_charset_type = DICTVI
…
module.decoder.layer_stack.5.enc_attn.linear_q.weight
module.decoder.layer_stack.5.enc_attn.linear_k.weight
module.decoder.layer_stack.5.enc_attn.linear_v.weight
module.decoder.layer_stack.5.enc_attn.fc.weight
module.decoder.layer_stack.5.mlp.w_1.weight
module.decoder.layer_stack.5.mlp.w_1.bias
module.decoder.layer_stack.5.mlp.w_2.weight
module.decoder.layer_stack.5.mlp.w_2.bias
module.decoder.layer_norm.weight
module.decoder.layer_norm.bias
module.decoder.classifier.weight
module.decoder.classifier.bias
DataParallel(
  (module): DINO_Finetune(
    (backbone): VisionTransformer(
      (patch_embed): PatchEmbed(
        (proj): Conv2d(3, 384, kernel_size=(4, 4), stride=(4, 4))
      )
      (pos_drop): Dropout(p=0.0, inplace=False)
      (blocks): ModuleList(
        (0): Block(
          (norm1): LayerNorm((384,), eps=1e-06, elementwise_affine=True)
          (attn): Attention(
            (qkv): Linear(in_features=384, out_features=1152, bias=True)
            (attn_drop): Dropout(p=0.0, inplace=False)
            (proj): Linear(in_features=384, out_features=384, bias=True)
            (proj_drop): Dropout(p=0.0, inplace=False)
          )
          (drop_path): Identity()
          (norm2): LayerNorm((384,), eps=1e-06, elementwise_affine=True)
          (mlp): Mlp(
            (fc1): Linear(in_features=384, out_features=1536, bias=True)
            (act): GELU()
            (fc2): Linear(in_features=1536, out_features=384, bias=True)
            (drop): Dropout(p=0.0, inplace=False)
          )
        )
        (1): Block(
          (norm1): LayerNorm((384,), eps=1e-06, elementwise_affine=True)
          (attn): Attention(
            (qkv): Linear(in_features=384, out_features=1152, bias=True)
            (attn_drop): Dropout(p=0.0, inplace=False)
            (proj): Linear(in_features=384, out_features=384, bias=True)
            (proj_drop): Dropout(p=0.0, inplace=False)
          )
          (drop_path): DropPath()
          (norm2): LayerNorm((384,), eps=1e-06, elementwise_affine=True)
          (mlp): Mlp(
            (fc1): Linear(in_features=384, out_features=1536, bias=True)
            (act): GELU()
            (fc2): Linear(in_features=1536, out_features=384, bias=True)
            (drop): Dropout(p=0.0, inplace=False)
          )
        )
        (2): Block(
          (norm1): LayerNorm((384,), eps=1e-06, elementwise_affine=True)
          (attn): Attention(
            (qkv): Linear(in_features=384, out_features=1152, bias=True)
            (attn_drop): Dropout(p=0.0, inplace=False)
            (proj): Linear(in_features=384, out_features=384, bias=True)
            (proj_drop): Dropout(p=0.0, inplace=False)
          )
          (drop_path): DropPath()
          (norm2): LayerNorm((384,), eps=1e-06, elementwise_affine=True)
          (mlp): Mlp(
            (fc1): Linear(in_features=384, out_features=1536, bias=True)
            (act): GELU()
            (fc2): Linear(in_features=1536, out_features=384, bias=True)
            (drop): Dropout(p=0.0, inplace=False)
          )
        )
        (3): Block(
          (norm1): LayerNorm((384,), eps=1e-06, elementwise_affine=True)
          (attn): Attention(
            (qkv): Linear(in_features=384, out_features=1152, bias=True)
            (attn_drop): Dropout(p=0.0, inplace=False)
            (proj): Linear(in_features=384, out_features=384, bias=True)
            (proj_drop): Dropout(p=0.0, inplace=False)
          )
          (drop_path): DropPath()
          (norm2): LayerNorm((384,), eps=1e-06, elementwise_affine=True)
          (mlp): Mlp(
            (fc1): Linear(in_features=384, out_features=1536, bias=True)
            (act): GELU()
            (fc2): Linear(in_features=1536, out_features=384, bias=True)
            (drop): Dropout(p=0.0, inplace=False)
          )
        )
        (4): Block(
          (norm1): LayerNorm((384,), eps=1e-06, elementwise_affine=True)
          (attn): Attention(
            (qkv): Linear(in_features=384, out_features=1152, bias=True)
            (attn_drop): Dropout(p=0.0, inplace=False)
            (proj): Linear(in_features=384, out_features=384, bias=True)
            (proj_drop): Dropout(p=0.0, inplace=False)
          )
          (drop_path): DropPath()
          (norm2): LayerNorm((384,), eps=1e-06, elementwise_affine=True)
          (mlp): Mlp(
            (fc1): Linear(in_features=384, out_features=1536, bias=True)
            (act): GELU()
            (fc2): Linear(in_features=1536, out_features=384, bias=True)
            (drop): Dropout(p=0.0, inplace=False)
          )
        )
        (5): Block(
          (norm1): LayerNorm((384,), eps=1e-06, elementwise_affine=True)
          (attn): Attention(
            (qkv): Linear(in_features=384, out_features=1152, bias=True)
            (attn_drop): Dropout(p=0.0, inplace=False)
            (proj): Linear(in_features=384, out_features=384, bias=True)
            (proj_drop): Dropout(p=0.0, inplace=False)
          )
          (drop_path): DropPath()
          (norm2): LayerNorm((384,), eps=1e-06, elementwise_affine=True)
          (mlp): Mlp(
            (fc1): Linear(in_features=384, out_features=1536, bias=True)
            (act): GELU()
            (fc2): Linear(in_features=1536, out_features=384, bias=True)
            (drop): Dropout(p=0.0, inplace=False)
          )
        )
        (6): Block(
          (norm1): LayerNorm((384,), eps=1e-06, elementwise_affine=True)
          (attn): Attention(
            (qkv): Linear(in_features=384, out_features=1152, bias=True)
            (attn_drop): Dropout(p=0.0, inplace=False)
            (proj): Linear(in_features=384, out_features=384, bias=True)
            (proj_drop): Dropout(p=0.0, inplace=False)
          )
          (drop_path): DropPath()
          (norm2): LayerNorm((384,), eps=1e-06, elementwise_affine=True)
          (mlp): Mlp(
            (fc1): Linear(in_features=384, out_features=1536, bias=True)
            (act): GELU()
            (fc2): Linear(in_features=1536, out_features=384, bias=True)
            (drop): Dropout(p=0.0, inplace=False)
          )
        )
        (7): Block(
          (norm1): LayerNorm((384,), eps=1e-06, elementwise_affine=True)
          (attn): Attention(
            (qkv): Linear(in_features=384, out_features=1152, bias=True)
            (attn_drop): Dropout(p=0.0, inplace=False)
            (proj): Linear(in_features=384, out_features=384, bias=True)
            (proj_drop): Dropout(p=0.0, inplace=False)
          )
          (drop_path): DropPath()
          (norm2): LayerNorm((384,), eps=1e-06, elementwise_affine=True)
          (mlp): Mlp(
            (fc1): Linear(in_features=384, out_features=1536, bias=True)
            (act): GELU()
            (fc2): Linear(in_features=1536, out_features=384, bias=True)
            (drop): Dropout(p=0.0, inplace=False)
          )
        )
        (8): Block(
          (norm1): LayerNorm((384,), eps=1e-06, elementwise_affine=True)
          (attn): Attention(
            (qkv): Linear(in_features=384, out_features=1152, bias=True)
            (attn_drop): Dropout(p=0.0, inplace=False)
            (proj): Linear(in_features=384, out_features=384, bias=True)
            (proj_drop): Dropout(p=0.0, inplace=False)
          )
          (drop_path): DropPath()
          (norm2): LayerNorm((384,), eps=1e-06, elementwise_affine=True)
          (mlp): Mlp(
            (fc1): Linear(in_features=384, out_features=1536, bias=True)
            (act): GELU()
            (fc2): Linear(in_features=1536, out_features=384, bias=True)
            (drop): Dropout(p=0.0, inplace=False)
          )
        )
        (9): Block(
          (norm1): LayerNorm((384,), eps=1e-06, elementwise_affine=True)
          (attn): Attention(
            (qkv): Linear(in_features=384, out_features=1152, bias=True)
            (attn_drop): Dropout(p=0.0, inplace=False)
            (proj): Linear(in_features=384, out_features=384, bias=True)
            (proj_drop): Dropout(p=0.0, inplace=False)
          )
          (drop_path): DropPath()
          (norm2): LayerNorm((384,), eps=1e-06, elementwise_affine=True)
          (mlp): Mlp(
            (fc1): Linear(in_features=384, out_features=1536, bias=True)
            (act): GELU()
            (fc2): Linear(in_features=1536, out_features=384, bias=True)
            (drop): Dropout(p=0.0, inplace=False)
          )
        )
        (10): Block(
          (norm1): LayerNorm((384,), eps=1e-06, elementwise_affine=True)
          (attn): Attention(
            (qkv): Linear(in_features=384, out_features=1152, bias=True)
            (attn_drop): Dropout(p=0.0, inplace=False)
            (proj): Linear(in_features=384, out_features=384, bias=True)
            (proj_drop): Dropout(p=0.0, inplace=False)
          )
          (drop_path): DropPath()
          (norm2): LayerNorm((384,), eps=1e-06, elementwise_affine=True)
          (mlp): Mlp(
            (fc1): Linear(in_features=384, out_features=1536, bias=True)
            (act): GELU()
            (fc2): Linear(in_features=1536, out_features=384, bias=True)
            (drop): Dropout(p=0.0, inplace=False)
          )
        )
        (11): Block(
          (norm1): LayerNorm((384,), eps=1e-06, elementwise_affine=True)
          (attn): Attention(
            (qkv): Linear(in_features=384, out_features=1152, bias=True)
            (attn_drop): Dropout(p=0.0, inplace=False)
            (proj): Linear(in_features=384, out_features=384, bias=True)
            (proj_drop): Dropout(p=0.0, inplace=False)
          )
          (drop_path): DropPath()
          (norm2): LayerNorm((384,), eps=1e-06, elementwise_affine=True)
          (mlp): Mlp(
            (fc1): Linear(in_features=384, out_features=1536, bias=True)
            (act): GELU()
            (fc2): Linear(in_features=1536, out_features=384, bias=True)
            (drop): Dropout(p=0.0, inplace=False)
          )
        )
      )
      (norm): LayerNorm((384,), eps=1e-06, elementwise_affine=True)
      (head): Identity()
      (norm_seg): Sequential(
        (0): LayerNorm((384,), eps=1e-06, elementwise_affine=True)
        (1): LayerNorm((384,), eps=1e-06, elementwise_affine=True)
        (2): LayerNorm((384,), eps=1e-06, elementwise_affine=True)
      )
    )
    (encoder): Mlp(
      (fc1): Linear(in_features=384, out_features=512, bias=True)
      (act): GELU()
      (fc2): Linear(in_features=512, out_features=512, bias=True)
      (drop): Dropout(p=0.1, inplace=False)
    )
    (decoder): NRTRDecoder(
      (trg_word_emb): Embedding(226, 512, padding_idx=225)
      (position_enc): PositionalEncoding(
        (dropout): Dropout(p=0, inplace=False)
      )
      (dropout): Dropout(p=0.1, inplace=False)
      (layer_stack): ModuleList(
        (0): TFDecoderLayer(
          (norm1): LayerNorm((512,), eps=1e-05, elementwise_affine=True)
          (norm2): LayerNorm((512,), eps=1e-05, elementwise_affine=True)
          (norm3): LayerNorm((512,), eps=1e-05, elementwise_affine=True)
          (self_attn): MultiHeadAttention(
            (linear_q): Linear(in_features=512, out_features=512, bias=False)
            (linear_k): Linear(in_features=512, out_features=512, bias=False)
            (linear_v): Linear(in_features=512, out_features=512, bias=False)
            (attention): ScaledDotProductAttention(
              (dropout): Dropout(p=0.1, inplace=False)
            )
            (fc): Linear(in_features=512, out_features=512, bias=False)
            (proj_drop): Dropout(p=0.1, inplace=False)
          )
          (enc_attn): MultiHeadAttention(
            (linear_q): Linear(in_features=512, out_features=512, bias=False)
            (linear_k): Linear(in_features=512, out_features=512, bias=False)
            (linear_v): Linear(in_features=512, out_features=512, bias=False)
            (attention): ScaledDotProductAttention(
              (dropout): Dropout(p=0.1, inplace=False)
            )
            (fc): Linear(in_features=512, out_features=512, bias=False)
            (proj_drop): Dropout(p=0.1, inplace=False)
          )
          (mlp): PositionwiseFeedForward(
            (w_1): Linear(in_features=512, out_features=256, bias=True)
            (w_2): Linear(in_features=256, out_features=512, bias=True)
            (act): GELU()
            (dropout): Dropout(p=0.1, inplace=False)
          )
        )
        (1): TFDecoderLayer(
          (norm1): LayerNorm((512,), eps=1e-05, elementwise_affine=True)
          (norm2): LayerNorm((512,), eps=1e-05, elementwise_affine=True)
          (norm3): LayerNorm((512,), eps=1e-05, elementwise_affine=True)
          (self_attn): MultiHeadAttention(
            (linear_q): Linear(in_features=512, out_features=512, bias=False)
            (linear_k): Linear(in_features=512, out_features=512, bias=False)
            (linear_v): Linear(in_features=512, out_features=512, bias=False)
            (attention): ScaledDotProductAttention(
              (dropout): Dropout(p=0.1, inplace=False)
            )
            (fc): Linear(in_features=512, out_features=512, bias=False)
            (proj_drop): Dropout(p=0.1, inplace=False)
          )
          (enc_attn): MultiHeadAttention(
            (linear_q): Linear(in_features=512, out_features=512, bias=False)
            (linear_k): Linear(in_features=512, out_features=512, bias=False)
            (linear_v): Linear(in_features=512, out_features=512, bias=False)
            (attention): ScaledDotProductAttention(
              (dropout): Dropout(p=0.1, inplace=False)
            )
            (fc): Linear(in_features=512, out_features=512, bias=False)
            (proj_drop): Dropout(p=0.1, inplace=False)
          )
          (mlp): PositionwiseFeedForward(
            (w_1): Linear(in_features=512, out_features=256, bias=True)
            (w_2): Linear(in_features=256, out_features=512, bias=True)
            (act): GELU()
            (dropout): Dropout(p=0.1, inplace=False)
          )
        )
        (2): TFDecoderLayer(
          (norm1): LayerNorm((512,), eps=1e-05, elementwise_affine=True)
          (norm2): LayerNorm((512,), eps=1e-05, elementwise_affine=True)
          (norm3): LayerNorm((512,), eps=1e-05, elementwise_affine=True)
          (self_attn): MultiHeadAttention(
            (linear_q): Linear(in_features=512, out_features=512, bias=False)
            (linear_k): Linear(in_features=512, out_features=512, bias=False)
            (linear_v): Linear(in_features=512, out_features=512, bias=False)
            (attention): ScaledDotProductAttention(
              (dropout): Dropout(p=0.1, inplace=False)
            )
            (fc): Linear(in_features=512, out_features=512, bias=False)
            (proj_drop): Dropout(p=0.1, inplace=False)
          )
          (enc_attn): MultiHeadAttention(
            (linear_q): Linear(in_features=512, out_features=512, bias=False)
            (linear_k): Linear(in_features=512, out_features=512, bias=False)
            (linear_v): Linear(in_features=512, out_features=512, bias=False)
            (attention): ScaledDotProductAttention(
              (dropout): Dropout(p=0.1, inplace=False)
            )
            (fc): Linear(in_features=512, out_features=512, bias=False)
            (proj_drop): Dropout(p=0.1, inplace=False)
          )
          (mlp): PositionwiseFeedForward(
            (w_1): Linear(in_features=512, out_features=256, bias=True)
            (w_2): Linear(in_features=256, out_features=512, bias=True)
            (act): GELU()
            (dropout): Dropout(p=0.1, inplace=False)
          )
        )
        (3): TFDecoderLayer(
          (norm1): LayerNorm((512,), eps=1e-05, elementwise_affine=True)
          (norm2): LayerNorm((512,), eps=1e-05, elementwise_affine=True)
          (norm3): LayerNorm((512,), eps=1e-05, elementwise_affine=True)
          (self_attn): MultiHeadAttention(
            (linear_q): Linear(in_features=512, out_features=512, bias=False)
            (linear_k): Linear(in_features=512, out_features=512, bias=False)
            (linear_v): Linear(in_features=512, out_features=512, bias=False)
            (attention): ScaledDotProductAttention(
              (dropout): Dropout(p=0.1, inplace=False)
            )
            (fc): Linear(in_features=512, out_features=512, bias=False)
            (proj_drop): Dropout(p=0.1, inplace=False)
          )
          (enc_attn): MultiHeadAttention(
            (linear_q): Linear(in_features=512, out_features=512, bias=False)
            (linear_k): Linear(in_features=512, out_features=512, bias=False)
            (linear_v): Linear(in_features=512, out_features=512, bias=False)
            (attention): ScaledDotProductAttention(
              (dropout): Dropout(p=0.1, inplace=False)
            )
            (fc): Linear(in_features=512, out_features=512, bias=False)
            (proj_drop): Dropout(p=0.1, inplace=False)
          )
          (mlp): PositionwiseFeedForward(
            (w_1): Linear(in_features=512, out_features=256, bias=True)
            (w_2): Linear(in_features=256, out_features=512, bias=True)
            (act): GELU()
            (dropout): Dropout(p=0.1, inplace=False)
          )
        )
        (4): TFDecoderLayer(
          (norm1): LayerNorm((512,), eps=1e-05, elementwise_affine=True)
          (norm2): LayerNorm((512,), eps=1e-05, elementwise_affine=True)
          (norm3): LayerNorm((512,), eps=1e-05, elementwise_affine=True)
          (self_attn): MultiHeadAttention(
            (linear_q): Linear(in_features=512, out_features=512, bias=False)
            (linear_k): Linear(in_features=512, out_features=512, bias=False)
            (linear_v): Linear(in_features=512, out_features=512, bias=False)
            (attention): ScaledDotProductAttention(
              (dropout): Dropout(p=0.1, inplace=False)
            )
            (fc): Linear(in_features=512, out_features=512, bias=False)
            (proj_drop): Dropout(p=0.1, inplace=False)
          )
          (enc_attn): MultiHeadAttention(
            (linear_q): Linear(in_features=512, out_features=512, bias=False)
            (linear_k): Linear(in_features=512, out_features=512, bias=False)
            (linear_v): Linear(in_features=512, out_features=512, bias=False)
            (attention): ScaledDotProductAttention(
              (dropout): Dropout(p=0.1, inplace=False)
            )
            (fc): Linear(in_features=512, out_features=512, bias=False)
            (proj_drop): Dropout(p=0.1, inplace=False)
          )
          (mlp): PositionwiseFeedForward(
            (w_1): Linear(in_features=512, out_features=256, bias=True)
            (w_2): Linear(in_features=256, out_features=512, bias=True)
            (act): GELU()
            (dropout): Dropout(p=0.1, inplace=False)
          )
        )
        (5): TFDecoderLayer(
          (norm1): LayerNorm((512,), eps=1e-05, elementwise_affine=True)
          (norm2): LayerNorm((512,), eps=1e-05, elementwise_affine=True)
          (norm3): LayerNorm((512,), eps=1e-05, elementwise_affine=True)
          (self_attn): MultiHeadAttention(
            (linear_q): Linear(in_features=512, out_features=512, bias=False)
            (linear_k): Linear(in_features=512, out_features=512, bias=False)
            (linear_v): Linear(in_features=512, out_features=512, bias=False)
            (attention): ScaledDotProductAttention(
              (dropout): Dropout(p=0.1, inplace=False)
            )
            (fc): Linear(in_features=512, out_features=512, bias=False)
            (proj_drop): Dropout(p=0.1, inplace=False)
          )
          (enc_attn): MultiHeadAttention(
            (linear_q): Linear(in_features=512, out_features=512, bias=False)
            (linear_k): Linear(in_features=512, out_features=512, bias=False)
            (linear_v): Linear(in_features=512, out_features=512, bias=False)
            (attention): ScaledDotProductAttention(
              (dropout): Dropout(p=0.1, inplace=False)
            )
            (fc): Linear(in_features=512, out_features=512, bias=False)
            (proj_drop): Dropout(p=0.1, inplace=False)
          )
          (mlp): PositionwiseFeedForward(
            (w_1): Linear(in_features=512, out_features=256, bias=True)
            (w_2): Linear(in_features=256, out_features=512, bias=True)
            (act): GELU()
            (dropout): Dropout(p=0.1, inplace=False)
          )
        )
      )
      (layer_norm): LayerNorm((512,), eps=1e-06, elementwise_affine=True)
      (classifier): Linear(in_features=512, out_features=225, bias=True)
    )
    (loss): TFLoss(
      (loss_ce): CrossEntropyLoss()
    )
  )
)

Trainable params num: 36284897

iteration:0--> train loss:5.628111839294434
eval model
ModelConfig(
	(0): arch = vit_small
	(1): clip_grad = None
	(2): dataset_augmentation_severity = 0
	(3): dataset_case_sensitive = False
	(4): dataset_charset_path = data/charset_36.txt
	(5): dataset_charset_type = DICTVI
…
