…
	(73): training_show_iters = 100
	(74): training_start_iters = 0
	(75): training_stats_iters = 1000
	(76): warmup_epochs = 1
	(77): weight_decay = 0.05
)
Construct dataset.
'current_dataset_path:../../data/ATTW/artonly/lmdb/train_filtered/-->12404'

'current_dataset_path:../../data/ATTW/artonly/lmdb/test_filtered/-->4130'

'current_dataset_path:../../data/ATTW/artonly/lmdb/test_filtered/-->4130'

each epoch iteration: 259
Read vision model from ../../../data/CCD/Small_ARD_checkpoint.pth.
DataParallel(
  (module): DINO_Finetune(
    (backbone): VisionTransformer(
      (patch_embed): PatchEmbed(
        (proj): Conv2d(3, 384, kernel_size=(4, 4), stride=(4, 4))
      )
      (pos_drop): Dropout(p=0.0, inplace=False)
      (blocks): ModuleList(
        (0): Block(
          (norm1): LayerNorm((384,), eps=1e-06, elementwise_affine=True)
          (attn): Attention(
            (qkv): Linear(in_features=384, out_features=1152, bias=True)
            (attn_drop): Dropout(p=0.0, inplace=False)
            (proj): Linear(in_features=384, out_features=384, bias=True)
            (proj_drop): Dropout(p=0.0, inplace=False)
          )
          (drop_path): Identity()
          (norm2): LayerNorm((384,), eps=1e-06, elementwise_affine=True)
          (mlp): Mlp(
            (fc1): Linear(in_features=384, out_features=1536, bias=True)
            (act): GELU()
            (fc2): Linear(in_features=1536, out_features=384, bias=True)
            (drop): Dropout(p=0.0, inplace=False)
          )
        )
        (1): Block(
          (norm1): LayerNorm((384,), eps=1e-06, elementwise_affine=True)
          (attn): Attention(
            (qkv): Linear(in_features=384, out_features=1152, bias=True)
            (attn_drop): Dropout(p=0.0, inplace=False)
            (proj): Linear(in_features=384, out_features=384, bias=True)
            (proj_drop): Dropout(p=0.0, inplace=False)
          )
          (drop_path): DropPath()
          (norm2): LayerNorm((384,), eps=1e-06, elementwise_affine=True)
          (mlp): Mlp(
            (fc1): Linear(in_features=384, out_features=1536, bias=True)
            (act): GELU()
            (fc2): Linear(in_features=1536, out_features=384, bias=True)
            (drop): Dropout(p=0.0, inplace=False)
          )
        )
        (2): Block(
          (norm1): LayerNorm((384,), eps=1e-06, elementwise_affine=True)
          (attn): Attention(
            (qkv): Linear(in_features=384, out_features=1152, bias=True)
            (attn_drop): Dropout(p=0.0, inplace=False)
            (proj): Linear(in_features=384, out_features=384, bias=True)
            (proj_drop): Dropout(p=0.0, inplace=False)
          )
          (drop_path): DropPath()
          (norm2): LayerNorm((384,), eps=1e-06, elementwise_affine=True)
          (mlp): Mlp(
            (fc1): Linear(in_features=384, out_features=1536, bias=True)
            (act): GELU()
            (fc2): Linear(in_features=1536, out_features=384, bias=True)
            (drop): Dropout(p=0.0, inplace=False)
          )
        )
        (3): Block(
          (norm1): LayerNorm((384,), eps=1e-06, elementwise_affine=True)
          (attn): Attention(
            (qkv): Linear(in_features=384, out_features=1152, bias=True)
            (attn_drop): Dropout(p=0.0, inplace=False)
            (proj): Linear(in_features=384, out_features=384, bias=True)
            (proj_drop): Dropout(p=0.0, inplace=False)
          )
          (drop_path): DropPath()
          (norm2): LayerNorm((384,), eps=1e-06, elementwise_affine=True)
          (mlp): Mlp(
            (fc1): Linear(in_features=384, out_features=1536, bias=True)
            (act): GELU()
            (fc2): Linear(in_features=1536, out_features=384, bias=True)
            (drop): Dropout(p=0.0, inplace=False)
          )
        )
        (4): Block(
          (norm1): LayerNorm((384,), eps=1e-06, elementwise_affine=True)
          (attn): Attention(
            (qkv): Linear(in_features=384, out_features=1152, bias=True)
            (attn_drop): Dropout(p=0.0, inplace=False)
            (proj): Linear(in_features=384, out_features=384, bias=True)
            (proj_drop): Dropout(p=0.0, inplace=False)
          )
          (drop_path): DropPath()
          (norm2): LayerNorm((384,), eps=1e-06, elementwise_affine=True)
          (mlp): Mlp(
            (fc1): Linear(in_features=384, out_features=1536, bias=True)
            (act): GELU()
            (fc2): Linear(in_features=1536, out_features=384, bias=True)
            (drop): Dropout(p=0.0, inplace=False)
          )
        )
        (5): Block(
          (norm1): LayerNorm((384,), eps=1e-06, elementwise_affine=True)
          (attn): Attention(
            (qkv): Linear(in_features=384, out_features=1152, bias=True)
            (attn_drop): Dropout(p=0.0, inplace=False)
            (proj): Linear(in_features=384, out_features=384, bias=True)
            (proj_drop): Dropout(p=0.0, inplace=False)
          )
          (drop_path): DropPath()
          (norm2): LayerNorm((384,), eps=1e-06, elementwise_affine=True)
          (mlp): Mlp(
            (fc1): Linear(in_features=384, out_features=1536, bias=True)
            (act): GELU()
            (fc2): Linear(in_features=1536, out_features=384, bias=True)
            (drop): Dropout(p=0.0, inplace=False)
          )
        )
        (6): Block(
          (norm1): LayerNorm((384,), eps=1e-06, elementwise_affine=True)
          (attn): Attention(
            (qkv): Linear(in_features=384, out_features=1152, bias=True)
            (attn_drop): Dropout(p=0.0, inplace=False)
            (proj): Linear(in_features=384, out_features=384, bias=True)
            (proj_drop): Dropout(p=0.0, inplace=False)
          )
          (drop_path): DropPath()
          (norm2): LayerNorm((384,), eps=1e-06, elementwise_affine=True)
          (mlp): Mlp(
            (fc1): Linear(in_features=384, out_features=1536, bias=True)
            (act): GELU()
            (fc2): Linear(in_features=1536, out_features=384, bias=True)
            (drop): Dropout(p=0.0, inplace=False)
          )
        )
        (7): Block(
          (norm1): LayerNorm((384,), eps=1e-06, elementwise_affine=True)
          (attn): Attention(
            (qkv): Linear(in_features=384, out_features=1152, bias=True)
            (attn_drop): Dropout(p=0.0, inplace=False)
            (proj): Linear(in_features=384, out_features=384, bias=True)
            (proj_drop): Dropout(p=0.0, inplace=False)
          )
          (drop_path): DropPath()
          (norm2): LayerNorm((384,), eps=1e-06, elementwise_affine=True)
          (mlp): Mlp(
            (fc1): Linear(in_features=384, out_features=1536, bias=True)
            (act): GELU()
            (fc2): Linear(in_features=1536, out_features=384, bias=True)
            (drop): Dropout(p=0.0, inplace=False)
          )
        )
        (8): Block(
          (norm1): LayerNorm((384,), eps=1e-06, elementwise_affine=True)
          (attn): Attention(
            (qkv): Linear(in_features=384, out_features=1152, bias=True)
            (attn_drop): Dropout(p=0.0, inplace=False)
            (proj): Linear(in_features=384, out_features=384, bias=True)
            (proj_drop): Dropout(p=0.0, inplace=False)
          )
          (drop_path): DropPath()
          (norm2): LayerNorm((384,), eps=1e-06, elementwise_affine=True)
          (mlp): Mlp(
            (fc1): Linear(in_features=384, out_features=1536, bias=True)
            (act): GELU()
            (fc2): Linear(in_features=1536, out_features=384, bias=True)
            (drop): Dropout(p=0.0, inplace=False)
          )
        )
        (9): Block(
          (norm1): LayerNorm((384,), eps=1e-06, elementwise_affine=True)
          (attn): Attention(
            (qkv): Linear(in_features=384, out_features=1152, bias=True)
            (attn_drop): Dropout(p=0.0, inplace=False)
            (proj): Linear(in_features=384, out_features=384, bias=True)
            (proj_drop): Dropout(p=0.0, inplace=False)
          )
          (drop_path): DropPath()
          (norm2): LayerNorm((384,), eps=1e-06, elementwise_affine=True)
          (mlp): Mlp(
            (fc1): Linear(in_features=384, out_features=1536, bias=True)
            (act): GELU()
            (fc2): Linear(in_features=1536, out_features=384, bias=True)
            (drop): Dropout(p=0.0, inplace=False)
          )
        )
        (10): Block(
          (norm1): LayerNorm((384,), eps=1e-06, elementwise_affine=True)
          (attn): Attention(
            (qkv): Linear(in_features=384, out_features=1152, bias=True)
            (attn_drop): Dropout(p=0.0, inplace=False)
            (proj): Linear(in_features=384, out_features=384, bias=True)
            (proj_drop): Dropout(p=0.0, inplace=False)
          )
          (drop_path): DropPath()
          (norm2): LayerNorm((384,), eps=1e-06, elementwise_affine=True)
          (mlp): Mlp(
            (fc1): Linear(in_features=384, out_features=1536, bias=True)
            (act): GELU()
            (fc2): Linear(in_features=1536, out_features=384, bias=True)
            (drop): Dropout(p=0.0, inplace=False)
          )
        )
        (11): Block(
          (norm1): LayerNorm((384,), eps=1e-06, elementwise_affine=True)
          (attn): Attention(
            (qkv): Linear(in_features=384, out_features=1152, bias=True)
            (attn_drop): Dropout(p=0.0, inplace=False)
            (proj): Linear(in_features=384, out_features=384, bias=True)
            (proj_drop): Dropout(p=0.0, inplace=False)
          )
          (drop_path): DropPath()
          (norm2): LayerNorm((384,), eps=1e-06, elementwise_affine=True)
          (mlp): Mlp(
            (fc1): Linear(in_features=384, out_features=1536, bias=True)
            (act): GELU()
            (fc2): Linear(in_features=1536, out_features=384, bias=True)
            (drop): Dropout(p=0.0, inplace=False)
          )
        )
      )
      (norm): LayerNorm((384,), eps=1e-06, elementwise_affine=True)
      (head): Identity()
      (norm_seg): Sequential(
        (0): LayerNorm((384,), eps=1e-06, elementwise_affine=True)
        (1): LayerNorm((384,), eps=1e-06, elementwise_affine=True)
        (2): LayerNorm((384,), eps=1e-06, elementwise_affine=True)
      )
    )
    (encoder): Mlp(
      (fc1): Linear(in_features=384, out_features=512, bias=True)
      (act): GELU()
      (fc2): Linear(in_features=512, out_features=512, bias=True)
      (drop): Dropout(p=0.1, inplace=False)
    )
    (decoder): NRTRDecoder(
      (trg_word_emb): Embedding(226, 512, padding_idx=225)
      (position_enc): PositionalEncoding(
        (dropout): Dropout(p=0, inplace=False)
      )
      (dropout): Dropout(p=0.1, inplace=False)
      (layer_stack): ModuleList(
        (0): TFDecoderLayer(
          (norm1): LayerNorm((512,), eps=1e-05, elementwise_affine=True)
          (norm2): LayerNorm((512,), eps=1e-05, elementwise_affine=True)
          (norm3): LayerNorm((512,), eps=1e-05, elementwise_affine=True)
          (self_attn): MultiHeadAttention(
            (linear_q): Linear(in_features=512, out_features=512, bias=False)
            (linear_k): Linear(in_features=512, out_features=512, bias=False)
            (linear_v): Linear(in_features=512, out_features=512, bias=False)
            (attention): ScaledDotProductAttention(
              (dropout): Dropout(p=0.1, inplace=False)
            )
            (fc): Linear(in_features=512, out_features=512, bias=False)
            (proj_drop): Dropout(p=0.1, inplace=False)
          )
          (enc_attn): MultiHeadAttention(
            (linear_q): Linear(in_features=512, out_features=512, bias=False)
            (linear_k): Linear(in_features=512, out_features=512, bias=False)
            (linear_v): Linear(in_features=512, out_features=512, bias=False)
            (attention): ScaledDotProductAttention(
              (dropout): Dropout(p=0.1, inplace=False)
            )
            (fc): Linear(in_features=512, out_features=512, bias=False)
            (proj_drop): Dropout(p=0.1, inplace=False)
          )
          (mlp): PositionwiseFeedForward(
            (w_1): Linear(in_features=512, out_features=256, bias=True)
            (w_2): Linear(in_features=256, out_features=512, bias=True)
            (act): GELU()
            (dropout): Dropout(p=0.1, inplace=False)
          )
        )
        (1): TFDecoderLayer(
          (norm1): LayerNorm((512,), eps=1e-05, elementwise_affine=True)
          (norm2): LayerNorm((512,), eps=1e-05, elementwise_affine=True)
          (norm3): LayerNorm((512,), eps=1e-05, elementwise_affine=True)
          (self_attn): MultiHeadAttention(
            (linear_q): Linear(in_features=512, out_features=512, bias=False)
            (linear_k): Linear(in_features=512, out_features=512, bias=False)
            (linear_v): Linear(in_features=512, out_features=512, bias=False)
            (attention): ScaledDotProductAttention(
              (dropout): Dropout(p=0.1, inplace=False)
            )
            (fc): Linear(in_features=512, out_features=512, bias=False)
            (proj_drop): Dropout(p=0.1, inplace=False)
          )
          (enc_attn): MultiHeadAttention(
            (linear_q): Linear(in_features=512, out_features=512, bias=False)
            (linear_k): Linear(in_features=512, out_features=512, bias=False)
            (linear_v): Linear(in_features=512, out_features=512, bias=False)
            (attention): ScaledDotProductAttention(
              (dropout): Dropout(p=0.1, inplace=False)
            )
            (fc): Linear(in_features=512, out_features=512, bias=False)
            (proj_drop): Dropout(p=0.1, inplace=False)
          )
          (mlp): PositionwiseFeedForward(
            (w_1): Linear(in_features=512, out_features=256, bias=True)
            (w_2): Linear(in_features=256, out_features=512, bias=True)
            (act): GELU()
            (dropout): Dropout(p=0.1, inplace=False)
          )
        )
        (2): TFDecoderLayer(
          (norm1): LayerNorm((512,), eps=1e-05, elementwise_affine=True)
          (norm2): LayerNorm((512,), eps=1e-05, elementwise_affine=True)
          (norm3): LayerNorm((512,), eps=1e-05, elementwise_affine=True)
          (self_attn): MultiHeadAttention(
            (linear_q): Linear(in_features=512, out_features=512, bias=False)
            (linear_k): Linear(in_features=512, out_features=512, bias=False)
            (linear_v): Linear(in_features=512, out_features=512, bias=False)
            (attention): ScaledDotProductAttention(
              (dropout): Dropout(p=0.1, inplace=False)
            )
            (fc): Linear(in_features=512, out_features=512, bias=False)
            (proj_drop): Dropout(p=0.1, inplace=False)
          )
          (enc_attn): MultiHeadAttention(
            (linear_q): Linear(in_features=512, out_features=512, bias=False)
            (linear_k): Linear(in_features=512, out_features=512, bias=False)
            (linear_v): Linear(in_features=512, out_features=512, bias=False)
            (attention): ScaledDotProductAttention(
              (dropout): Dropout(p=0.1, inplace=False)
            )
            (fc): Linear(in_features=512, out_features=512, bias=False)
            (proj_drop): Dropout(p=0.1, inplace=False)
          )
          (mlp): PositionwiseFeedForward(
            (w_1): Linear(in_features=512, out_features=256, bias=True)
            (w_2): Linear(in_features=256, out_features=512, bias=True)
            (act): GELU()
            (dropout): Dropout(p=0.1, inplace=False)
          )
        )
        (3): TFDecoderLayer(
          (norm1): LayerNorm((512,), eps=1e-05, elementwise_affine=True)
          (norm2): LayerNorm((512,), eps=1e-05, elementwise_affine=True)
          (norm3): LayerNorm((512,), eps=1e-05, elementwise_affine=True)
          (self_attn): MultiHeadAttention(
            (linear_q): Linear(in_features=512, out_features=512, bias=False)
            (linear_k): Linear(in_features=512, out_features=512, bias=False)
            (linear_v): Linear(in_features=512, out_features=512, bias=False)
            (attention): ScaledDotProductAttention(
              (dropout): Dropout(p=0.1, inplace=False)
            )
            (fc): Linear(in_features=512, out_features=512, bias=False)
            (proj_drop): Dropout(p=0.1, inplace=False)
          )
          (enc_attn): MultiHeadAttention(
            (linear_q): Linear(in_features=512, out_features=512, bias=False)
            (linear_k): Linear(in_features=512, out_features=512, bias=False)
            (linear_v): Linear(in_features=512, out_features=512, bias=False)
            (attention): ScaledDotProductAttention(
              (dropout): Dropout(p=0.1, inplace=False)
            )
            (fc): Linear(in_features=512, out_features=512, bias=False)
            (proj_drop): Dropout(p=0.1, inplace=False)
          )
          (mlp): PositionwiseFeedForward(
            (w_1): Linear(in_features=512, out_features=256, bias=True)
            (w_2): Linear(in_features=256, out_features=512, bias=True)
            (act): GELU()
            (dropout): Dropout(p=0.1, inplace=False)
          )
        )
        (4): TFDecoderLayer(
          (norm1): LayerNorm((512,), eps=1e-05, elementwise_affine=True)
          (norm2): LayerNorm((512,), eps=1e-05, elementwise_affine=True)
          (norm3): LayerNorm((512,), eps=1e-05, elementwise_affine=True)
          (self_attn): MultiHeadAttention(
            (linear_q): Linear(in_features=512, out_features=512, bias=False)
            (linear_k): Linear(in_features=512, out_features=512, bias=False)
            (linear_v): Linear(in_features=512, out_features=512, bias=False)
            (attention): ScaledDotProductAttention(
              (dropout): Dropout(p=0.1, inplace=False)
            )
            (fc): Linear(in_features=512, out_features=512, bias=False)
            (proj_drop): Dropout(p=0.1, inplace=False)
          )
          (enc_attn): MultiHeadAttention(
            (linear_q): Linear(in_features=512, out_features=512, bias=False)
            (linear_k): Linear(in_features=512, out_features=512, bias=False)
            (linear_v): Linear(in_features=512, out_features=512, bias=False)
            (attention): ScaledDotProductAttention(
              (dropout): Dropout(p=0.1, inplace=False)
            )
            (fc): Linear(in_features=512, out_features=512, bias=False)
            (proj_drop): Dropout(p=0.1, inplace=False)
          )
          (mlp): PositionwiseFeedForward(
            (w_1): Linear(in_features=512, out_features=256, bias=True)
            (w_2): Linear(in_features=256, out_features=512, bias=True)
            (act): GELU()
            (dropout): Dropout(p=0.1, inplace=False)
          )
        )
        (5): TFDecoderLayer(
          (norm1): LayerNorm((512,), eps=1e-05, elementwise_affine=True)
          (norm2): LayerNorm((512,), eps=1e-05, elementwise_affine=True)
          (norm3): LayerNorm((512,), eps=1e-05, elementwise_affine=True)
          (self_attn): MultiHeadAttention(
            (linear_q): Linear(in_features=512, out_features=512, bias=False)
            (linear_k): Linear(in_features=512, out_features=512, bias=False)
            (linear_v): Linear(in_features=512, out_features=512, bias=False)
            (attention): ScaledDotProductAttention(
              (dropout): Dropout(p=0.1, inplace=False)
            )
            (fc): Linear(in_features=512, out_features=512, bias=False)
            (proj_drop): Dropout(p=0.1, inplace=False)
          )
          (enc_attn): MultiHeadAttention(
            (linear_q): Linear(in_features=512, out_features=512, bias=False)
            (linear_k): Linear(in_features=512, out_features=512, bias=False)
            (linear_v): Linear(in_features=512, out_features=512, bias=False)
            (attention): ScaledDotProductAttention(
              (dropout): Dropout(p=0.1, inplace=False)
            )
            (fc): Linear(in_features=512, out_features=512, bias=False)
            (proj_drop): Dropout(p=0.1, inplace=False)
          )
          (mlp): PositionwiseFeedForward(
            (w_1): Linear(in_features=512, out_features=256, bias=True)
            (w_2): Linear(in_features=256, out_features=512, bias=True)
            (act): GELU()
            (dropout): Dropout(p=0.1, inplace=False)
          )
        )
      )
      (layer_norm): LayerNorm((512,), eps=1e-06, elementwise_affine=True)
      (classifier): Linear(in_features=512, out_features=225, bias=True)
    )
    (loss): TFLoss(
      (loss_ce): CrossEntropyLoss()
    )
  )
)

Trainable params num: 36284897

Start training from scratch.
iteration:0--> train loss:5.547771453857422
eval model
iteration:100--> train loss:3.6187214851379395
iteration:200--> train loss:1.263013243675232
iteration:300--> train loss:1.0114012956619263
iteration:400--> train loss:0.9340818524360657
…
